songdo_rnn/lightning_logs/version_0/checkpoints/epoch=0-step=64.ckpt (torch, 23435 bytes, 15 tensors)

model.rnn.weight_ih_l0 f4 [32, 1]
0	0x3dab37a4	0.08360222
1	0xb998ab37	-0.00029119264
2	0xbdd3a76d	-0.10334668
3	0x3e353da4	0.17699295
4	0xbd445048	-0.047928125
5	0x3d9941e1	0.074832685
6	0x3df6173b	0.120161496
7	0x3e01def3	0.12682705
8	0xbdbad6dd	-0.09123013
9	0xbdcb0b0e	-0.09914218
10	0x3d81e79b	0.06343003
11	0xbe54e330	-0.2078979
12	0x3cd9d855	0.026592413
13	0xbdcb37a9	-0.09922726
14	0x3d1698c7	0.036766794
15	0xbc4c06f1	-0.012452827
16	0xbd9e7241	-0.07736636
17	0xbe06414b	-0.13110845
18	0xbd12980c	-0.035789534
19	0x3e0787be	0.13235375
20	0xbde2a174	-0.11065951
21	0xbe175836	-0.14779744
22	0x3d9efd28	0.077631295
23	0x3bfec5e9	0.0077750576
24	0x3de669fc	0.11250684
25	0xbe53b90c	-0.20676059
26	0x3e0721c9	0.13196482
27	0xbdd3f497	-0.10349386
28	0x3de143f1	0.10999287
29	0x3cdd5a20	0.027020514
30	0x3d4eae17	0.050458994
31	0x3e376265	0.17908628

model.rnn.weight_hh_l0 f4 [32, 32]
0	0xbd9b94f2	-0.075967684
1	0xbe2c6c0f	-0.16838096
2	0x3cdba2f3	0.026811099
3	0x3e1b1212	0.15143612
4	0xbd8df910	-0.069322705
5	0xbda68fee	-0.08132921
6	0xbd96139d	-0.0732796
7	0x3e1e8624	0.15480858
8	0xbe1f754f	-0.15572093
9	0xbd61c5e7	-0.055120375
10	0x3cf52e92	0.029929433
11	0x3dec8b26	0.11549978
12	0x3d1a0f59	0.037612293
13	0xba75d9ec	-0.0009378481
14	0x3d88885e	0.06666635
15	0xbbb46fad	-0.005506477
16	0x3e3a0e77	0.1816958
17	0xbe355fdd	-0.1771235
18	0x3c49c385	0.012314682
19	0x3d7563fc	0.059909806
20	0xbbfa8c1c	-0.007646097
21	0x3da012bd	0.07816074
22	0xbcf3db3f	-0.02976763
23	0xbdf19a14	-0.11796966
24	0xbdb5f235	-0.08884088
25	0xbe11c6c2	-0.14235976
26	0x3e1deb35	0.15421756
27	0xbdaaf06a	-0.083466366
28	0x3e13ad95	0.14421685
29	0xbd96ec6e	-0.07369314
30	0x3e1928a8	0.14956915
31	0xbdf9961e	-0.12186836
32	0x3e24e3ef	0.16102575
33	0xbddcf449	-0.10788781
34	0x3b245ead	0.0025080845
35	0x3e1fb891	0.1559775
36	0xbd7fed34	-0.062482074
37	0xbe1ea16d	-0.15491267
38	0xbdc285db	-0.09498187
39	0xbdc7913b	-0.097444974
40	0xbd5b95c7	-0.053609636
41	0x3cffda7b	0.03123211
42	0x3da4fb45	0.08055738
43	0x3e0b62a7	0.13611852
44	0x3dcf470e	0.101209745
45	0x3e11710f	0.14203285
46	0x3d652caa	0.055950798
47	0xbbb727d0	-0.005589463
48	0xbe373d90	-0.17894578
49	0x3e24b764	0.16085583
50	0xbd442581	-0.04788733
51	0xbe22bdde	-0.15892741
52	0xbbe38622	-0.00694348
53	0x3dd0b666	0.1019104
54	0xbd0cdda2	-0.034391053
55	0x3e19e7b5	0.15029795
56	0x3d728920	0.059212804
57	0x3de3094c	0.110857576
58	0x3e01bb8c	0.126692
59	0x3df4cdab	0.119532906
60	0x3e07c945	0.13260372
61	0xbe0802ab	-0.13282268
62	0x3e42a376	0.19007668
63	0x3d013f8e	0.03155475
64	0xb9c4a000	-0.00037503242
65	0x3e2e3e8b	0.17016046
66	0xbe48b6d2	-0.1960099
67	0x3e05c1da	0.1306223
68	0xbdce4c16	-0.10073106
69	0xbae19f35	-0.0017213585
70	0xbd81549b	-0.06314965
71	0xbe15369d	-0.14571615
72	0xbd36bad3	-0.044611763
73	0xbe02066a	-0.1269776
74	0x3e1271c2	0.14301208
75	0x3de5b271	0.112156756
76	0xbd40488d	-0.04694419
77	0x3d2aec51	0.041729275
78	0xbcadbfb2	-0.021209572
79	0x3e121db1	0.14269139
80	0xbddb6f19	-0.107145496
81	0xbd18635f	-0.037204143
82	0xbe3e0a52	-0.18558624
83	0xbd962788	-0.07331759
84	0xbce93fac	-0.028472744
85	0xbe2946f8	-0.16530979
86	0x3cb6f82e	0.022335138
87	0x3dae82a9	0.08521015
88	0x3ce118d7	0.027477665
89	0xbd9e9641	-0.077435024
90	0x3ceb478c	0.02872064
91	0xbd27a472	-0.04092831
92	0x3df81751	0.12113822
93	0x3cb4bba9	0.02206214
94	0x3dd9e2d3	0.106389664
95	0xbc8b415e	-0.016998943
96	0x3b00fe1e	0.0019682716
97	0xbd3f40d1	-0.046692673
98	0xbdd30d80	-0.10305309
99	0xbd101424	-0.035175458
100	0x3dc176bb	0.09446474
101	0xbc1c7d44	-0.00955135
102	0x3d20e053	0.039276432
103	0xbe1a2265	-0.15052183
104	0xbda803a2	-0.08203818
105	0x3dd29b41	0.102835186
106	0xbdccb9ac	-0.099963516
107	0x3d991e7a	0.07476516
108	0x3c212cc5	0.009837334
109	0x3d84b4a6	0.064797685
110	0xbc5d6462	-0.013512703
111	0xbdd0fd94	-0.10204616
112	0x3e177275	0.14789756
113	0x3df6453f	0.120249264
114	0x3d68a0b7	0.056793895
115	0x3e300417	0.1718906
116	0x3df6e476	0.12055294
117	0xbdf132cf	-0.11777269
118	0x3e06e3e9	0.13172878
119	0xbd9cd582	-0.07657911
120	0x3e335de1	0.1751628
121	0xbe3042ba	-0.17212954
122	0xbcd81ad7	-0.026379986
123	0xbc891fe4	-0.01673884
124	0xbe0391ac	-0.12848538
125	0xbda6397f	-0.08116435
126	0xbd610859	-0.0549396
127	0x3d0e8e58	0.03480372
128	0xbda6b18a	-0.08139332
129	0xbe32762d	-0.17427893
130	0x3c55dbc0	0.013052881
131	0x3de95888	0.11393839
132	0x3d3e89ad	0.046518017
133	0xbcab37ae	-0.020900574
134	0x3e3c3bda	0.18382207
135	0xbe16d2e0	-0.1472888
136	0xbd68914f	-0.056779202
137	0x3e02c515	0.12770493
138	0x3dd4ab88	0.103842795
139	0x3e0b96c0	0.13631725
140	0x3e21539a	0.15754548
141	0xbd755db7	-0.059903827
142	0x3dfa370d	0.12217531
143	0xbdaedc97	-0.08538168
144	0x3d9b844c	0.07593593
145	0x3dd7137f	0.105017655
146	0x3dca64e3	0.09882524
147	0xbd48647c	-0.048923954
148	0xbe2ba2c4	-0.16761309
149	0x3e01357a	0.12618056
150	0xbdd87399	-0.105689235
151	0xbb3068ec	-0.0026918007
152	0x3e2c75fe	0.16841885
153	0x3cba55be	0.022745963
154	0x3d3ee987	0.046609428
155	0xbcf33686	-0.029689085
156	0x3e0b06de	0.13576838
157	0xba502220	-0.00079396553
158	0xbe1bad49	-0.15202822
159	0xbdc5979a	-0.09648056
160	0x3cdb701a	0.026786853
161	0xbde719b1	-0.11284197
162	0xbe1bcc62	-0.15214685
163	0xbd883957	-0.06651562
164	0xbd5e8a6b	-0.054331224
165	0xbe2b4e86	-0.16729173
166	0xbd3e74c3	-0.04649807
167	0x3c64411b	0.013931538
168	0x3c5c21c7	0.0134357875
169	0x3d965a87	0.073414855
170	0xbddb7b6b	-0.107168995
171	0x3e130060	0.14355612
172	0xbce70dbb	-0.02820479
173	0x3e10e197	0.14148556
174	0x3d89d880	0.06730747
175	0x3e0b7e4b	0.13622396
176	0xbdfadb14	-0.12248817
177	0x3c7c986d	0.0154172005
178	0x3d9d71a9	0.076876946
179	0x3ab64a9c	0.0013907733
180	0x3d18af1e	0.03727638
181	0x3dea499d	0.11439822
182	0x3d6ca97c	0.05777882
183	0x3e304896	0.1721519
184	0xbc60c895	-0.0137196975
185	0xbe1ba9d5	-0.15201505
186	0xbcfafe7e	-0.03063893
187	0xbe29fd15	-0.1660045
188	0x3d96a156	0.07354991
189	0x3d970776	0.0737447
190	0xbdb495fc	-0.0881767
191	0x3dfdaeb0	0.123868346
192	0xbcb6469d	-0.022250468
193	0x3e2d0ebb	0.1690015
194	0x3ade9db0	0.001698425
195	0xbe331bd5	-0.17491086
196	0x3c8b7665	0.017024228
197	0xbd0dd899	-0.03463039
198	0xbb0c40ef	-0.0021401008
199	0x3e0d14b9	0.13777436
200	0x3e16f8f6	0.14743409
201	0xbda46b58	-0.08028287
202	0x3db41120	0.08792329
203	0x3d8d6008	0.06903082
204	0xbe16dee6	-0.14733467
205	0xbd50e8fd	-0.051003445
206	0xbd18e31f	-0.037325975
207	0xbc8a740a	-0.016901035
208	0xbd41e65d	-0.047338832
209	0xbd73d8e6	-0.059533022
210	0x3cc71bfa	0.024305332
211	0xbdaaf892	-0.08348192
212	0xbe1b1461	-0.15144493
213	0xbd9408a1	-0.07228208
214	0xbdd439eb	-0.103626095
215	0x3c259d89	0.01010836
216	0x3c6fe6eb	0.0146424575
217	0xbdc6a9f6	-0.09700386
218	0xbd91940f	-0.07108318
219	0xbdf4a001	-0.11944581
220	0x3dffc6a4	0.124890596
221	0x3cbe5dd8	0.023238108
222	0xbd85634c	-0.0651308
223	0xbda008b7	-0.07814162
224	0xbdfc25dc	-0.123119086
225	0xbcc0f652	-0.023554955
226	0xbe1b2f16	-0.1515468
227	0xbd613a25	-0.05498709
228	0xbdb4e516	-0.08832757
229	0x3d8a1b10	0.06743443
230	0xbdf23f32	-0.1182846
231	0x3e039a5c	0.12851852
232	0x3e153937	0.14572607
233	0xbde4367a	-0.11143203
234	0x3d9ab374	0.07553759
235	0xbe350e59	-0.17681254
236	0x3e5cd817	0.21566807
237	0xbdba7349	-0.0910402
238	0x3e2c12b0	0.16804004
239	0x3e5153da	0.20442143
240	0xbd7fb444	-0.062427774
241	0xbe0ea6ab	-0.13930766
242	0x3d7b5cca	0.061367787
243	0x3e0ecf42	0.1394625
244	0x3c343022	0.010997804
245	0xbe111ebc	-0.1417188
246	0x3dd40792	0.103530064
247	0x3e21df60	0.15807867
248	0xbddee483	-0.10883429
249	0xbe27bcb1	-0.16380574
250	0x3dc03422	0.093849435
251	0x3cd3a863	0.025837129
252	0x3d030d6b	0.03199522
253	0x3e03316a	0.12811819
254	0x3cfb6633	0.03068838
255	0xbcdc1b52	-0.026868496

model.rnn.bias_ih_l0 f4 [32]
0	0xbe03a79a	-0.12856904
1	0x3db27136	0.087129995
2	0x3dacb0be	0.084321484
3	0x3d68ff75	0.056884248
4	0x3e0e33b9	0.13886918
5	0x3e2e6d76	0.17033944
6	0x3ba47287	0.0050185355
7	0x3e0cb664	0.13741452
8	0xbdf4e28d	-0.11957274
9	0x3d17a805	0.03702547
10	0xba03a5d7	-0.00050219655
11	0xbd633f64	-0.055480376
12	0x3bd92ca3	0.0066276356
13	0xbdf992bf	-0.12186193
14	0x3c8ceb72	0.017202113
15	0xbcfa27d0	-0.030536562
16	0xbc1cf659	-0.009580218
17	0xbdecf4ed	-0.115701534
18	0x3d9ebe3a	0.077511266
19	0x3d0645e5	0.0327815
20	0x3e127f6f	0.14306425
21	0x3d102a8f	0.035196837
22	0x3dbe6c02	0.092979446
23	0x3c84017b	0.016113987
24	0x3e0d4efd	0.13799663
25	0xbe1505f8	-0.14553058
26	0xbd34ae07	-0.044111278
27	0xbc467c8e	-0.012114657
28	0xba1b53bc	-0.0005925258
29	0x3dfb73b5	0.12277929
30	0xbe3f76c2	-0.18697646
31	0xbdd1991f	-0.10234284

model.rnn.bias_hh_l0 f4 [32]
0	0xbc06e0de	-0.008232323
1	0x3d39aeff	0.045332905
2	0xbd2d5a33	-0.04232235
3	0x3e034aff	0.12821577
4	0xbd7246f9	-0.059149716
5	0x3db2e966	0.087359235
6	0x3b98826b	0.004654219
7	0x3d466ae2	0.048441775
8	0x3cf3d822	0.029766146
9	0x3e0393dd	0.12849374
10	0x3d84ee0c	0.06490716
11	0xbdf71f7c	-0.12066552
12	0xbdb6921c	-0.08914587
13	0xbe1e305f	-0.1544814
14	0x3db05c99	0.086114116
15	0x3c7f30d3	0.015575605
16	0xbda5565e	-0.08073114
17	0xbe2758f2	-0.16342524
18	0x3e178af8	0.14799106
19	0x3e0cae7c	0.13738436
20	0xbdaffced	-0.08593164
21	0x3db4e89e	0.08833431
22	0xbdf9cbca	-0.12197073
23	0xbe0bd270	-0.13654494
24	0xbe433efd	-0.19066997
25	0xbe1b8425	-0.15187128
26	0xbd9b0f6f	-0.07571303
27	0xbd90d360	-0.070715666
28	0x3db0e1de	0.08636831
29	0xbc009d21	-0.007849962
30	0xbb82ba67	-0.003989506
31	0xbd7dfa6c	-0.0620064

model.fc.weight f4 [1, 32]
0	0xba0313e4	-0.00050002174
1	0x3e10333c	0.14082044
2	0x3beec046	0.0072861044
3	0x3e179b3f	0.14805315
4	0x3e018eaa	0.12652078
5	0xbd8c492c	-0.06849894
6	0xbe0abff1	-0.13549782
7	0x3e2bcad7	0.16776596
8	0xbdeb5787	-0.11491304
9	0x3e194645	0.14968212
10	0x3e213092	0.15741184
11	0xbdf28c7a	-0.118432
12	0x3dcb4e1e	0.09927009
13	0xbbc3f98b	-0.0059806756
14	0x3d30e218	0.04318437
15	0xbe095666	-0.13411865
16	0xbc5cfe6b	-0.013488392
17	0xbdf94660	-0.12171626
18	0xbe15997b	-0.1460933
19	0x3e1b6ecf	0.15178989
20	0xbdf456cf	-0.1193062
21	0xbe2d4fae	-0.16924927
22	0xbe27725c	-0.16352218
23	0x3e0355a3	0.12825637
24	0x3b6e9b4d	0.0036408484
25	0xbdcb29e0	-0.099200964
26	0x3e1f7f3a	0.15575877
27	0xbe117a20	-0.14206743
28	0xbd1ebc6e	-0.03875392
29	0x3e10058e	0.14064619
30	0xbd3cfa67	-0.04613724
31	0x3e53dd77	0.20689951

exp_avg f4 [32, 1]
0	0xbacfa8d4	-0.0015843161
1	0xba361245	-0.00069454714
2	0xbb51b72c	-0.0032000048
3	0xbbc96d40	-0.006147057
4	0x3a849a7c	0.0010116841
5	0x3a7418fa	0.0009311583
6	0x3b8aaf74	0.0042323414
7	0xbbd9b895	-0.0066443183
8	0x3b9f7d98	0.004867267
9	0xbb83296b	-0.00400274
10	0xbb9e4776	-0.004830296
11	0x3c08aae8	0.0083415285
12	0xbc44c80e	-0.012010587
13	0x3b2d6b14	0.0026461529
14	0xbbded740	-0.006800562
15	0x3ba7d3bb	0.005121676
16	0x3ae6cea2	0.0017609189
17	0x3bc96a8b	0.006146734
18	0x3bf10a98	0.007355999
19	0xbc04effc	-0.008113857
20	0x3b444a72	0.00299516
21	0x3c69e8de	0.014276711
22	0x3b58001c	0.003295905
23	0xbb95c69f	-0.0045707966
24	0xbb902d74	-0.0043999497
25	0x3b7332e5	0.0037109193
26	0xbc0aba99	-0.00846734
27	0x3bb3037b	0.0054630614
28	0xbab25fb3	-0.0013608843
29	0xbbfc62b9	-0.0077021983
30	0xbb95a53a	-0.0045668157
31	0xbc36b124	-0.011150632

exp_avg_sq f4 [32, 1]
0	0x3492744f	2.7279245e-07
1	0x35124e7a	5.4503437e-07
2	0x36cd83f2	6.1248365e-06
3	0x36d112c8	6.230872e-06
4	0x35e3caa9	1.69718e-06
5	0x35432338	7.269441e-07
6	0x36fda54f	7.559232e-06
7	0x36b159cf	5.285466e-06
8	0x368afaa5	4.1418994e-06
9	0x36d67c70	6.3921834e-06
10	0x369d5232	4.6885334e-06
11	0x36e0ed34	6.7033343e-06
12	0x3778360e	1.47945375e-05
13	0x35b443e4	1.3430804e-06
14	0x36d3360b	6.2945815e-06
15	0x36ce047d	6.139801e-06
16	0x3491e9a7	2.717836e-07
17	0x36853a3f	3.9704896e-06
18	0x368e5127	4.241377e-06
19	0x370f9aaa	8.559475e-06
20	0x34b3a7ba	3.3463385e-07
21	0x37a77309	1.9961519e-05
22	0x3658f21c	3.2327434e-06
23	0x36ec4787	7.041675e-06
24	0x358b6200	1.0384829e-06
25	0x35d3e19a	1.5786384e-06
26	0x36b25984	5.3152344e-06
27	0x361fcb72	2.3811267e-06
28	0x3496961c	2.8048896e-07
29	0x371487d7	8.853115e-06
30	0x3587fb4e	1.0131423e-06
31	0x3767ceae	1.3816794e-05

exp_avg f4 [32, 32]
0	0xb9eefa59	-0.0004558142
1	0x389fadfb	7.614117e-05
2	0x3842170c	4.627467e-05
3	0xb96128c9	-0.00021472866
4	0xb93aa4ea	-0.00017799778
5	0xb930cfb6	-0.00016862046
6	0xb9ba9805	-0.00035589948
7	0xb9dc24d6	-0.00041989115
8	0x399153f7	0.00027719114
9	0xb9df70a7	-0.00042617807
10	0xb9b0542e	-0.00033632055
11	0x395f60f5	0.00021303057
12	0x3863c82c	5.4307442e-05
13	0x398e9e48	0.0002720228
14	0xb9f41b72	-0.00046559755
15	0x390a9fee	0.00013220284
16	0xb8d88bb4	-0.00010325704
17	0x3a068eed	0.0005132992
18	0x39dd66eb	0.00042229085
19	0xb9fd517b	-0.00048316628
20	0x3a285b0e	0.00064222596
21	0x398258be	0.0002486165
22	0x39ead62a	0.00044791523
23	0x390126f1	0.00012316905
24	0xb9a7b0cf	-0.00031984455
25	0x398482d7	0.00025274485
26	0xba5462df	-0.0008101891
27	0x3a202a5f	0.00061098294
28	0xb9f47c4c	-0.00046631915
29	0xb980a81a	-0.00024539308
30	0xb91bae90	-0.00014846982
31	0xb9e0c93c	-0.0004287454
32	0xb90b6143	-0.00013292306
33	0x3811c834	3.4757148e-05
34	0x3848a1af	4.7834295e-05
35	0xb909ea36	-0.00013152589
36	0xb9219c1a	-0.00015412309
37	0xb9117cee	-0.00013874818
38	0xb9132656	-0.00014033294
39	0xb8a1b889	-7.7114506e-05
40	0x387967e6	5.946299e-05
41	0xb90254f4	-0.00012429414
42	0xb8823dac	-6.21037e-05
43	0xb754574e	-1.2656512e-05
44	0x390bf7b9	0.00013348357
45	0x38d189fd	9.991599e-05
46	0xb91c7143	-0.00014919513
47	0xb6648edf	-3.405781e-06
48	0x36bc78c4	5.6168956e-06
49	0x392e2d35	0.00016610774
50	0x381d3427	3.7480288e-05
51	0xb931dd19	-0.000169624
52	0x38d441f4	0.000101212325
53	0xb8145609	-3.5366076e-05
54	0x39123d84	0.00013946561
55	0x3903f873	0.00012585688
56	0xb901a85e	-0.0001236512
57	0x38bdcbeb	9.050205e-05
58	0xb9927ba2	-0.00027939404
59	0x39780413	0.00023652641
60	0xb91fa423	-0.00015224567
61	0xb8799ac3	-5.951036e-05
62	0x387154a4	5.7537705e-05
63	0xb8cc6110	-9.745557e-05
64	0xb9972719	-0.00028830094
65	0x37f99fa4	2.9757452e-05
66	0x38dcbaf4	0.0001052524
67	0xb953acb2	-0.00020186862
68	0x3963c6a8	0.00021722412
69	0xb77a9c2e	-1.4937525e-05
70	0xb9941fd0	-0.00028252462
71	0xb9ad11d6	-0.0003301042
72	0x39594278	0.00020719494
73	0x3884aada	6.326074e-05
74	0xb97ba023	-0.00023996881
75	0x3a0673b7	0.0005128937
76	0xb9673bee	-0.00022052202
77	0x38ec024c	0.00011253785
78	0xb9601e21	-0.00021373529
79	0x388191e9	6.178377e-05
80	0xb6ecba1d	-7.0550145e-06
81	0x3984ae1a	0.00025306718
82	0x39cb2301	0.00038745257
83	0xb9664d95	-0.00021963411
84	0x3a01e66f	0.0004955297
85	0x39f0d5e6	0.00045935734
86	0x3873c690	5.812064e-05
87	0xb8b1bc71	-8.475118e-05
88	0xb99ed434	-0.00030294212
89	0x39a0de23	0.00030683083
90	0xb9d829ad	-0.0004122978
91	0x39637a0e	0.00021693876
92	0xb98717ba	-0.00025766884
93	0xb8cfe702	-9.913558e-05
94	0xb99f3f01	-0.00030373785
95	0xba011b5b	-0.0004925036
96	0xba027ec2	-0.0004977995
97	0x38a0f6b7	7.675349e-05
98	0x3960c066	0.00021433979
99	0xb9ea5f84	-0.00044703123
100	0x39bba5bf	0.0003579091
101	0xb8f02a6c	-0.000114519935
102	0xba0570a8	-0.00050903345
103	0xba2dd28d	-0.0006630801
104	0x39d25fb5	0.0004012563
105	0x390ceaba	0.00013438883
106	0xb9dfd04c	-0.00042689068
107	0x3a768cba	0.0009405125
108	0xb9bf53db	-0.00036492836
109	0x398f13ba	0.00027289783
110	0xb9c36295	-0.00037266748
111	0x38c4474a	9.359287e-05
112	0x385a3822	5.2027528e-05
113	0x3a0ba98b	0.0005327693
114	0x3a1db0d9	0.0006015427
115	0xb9ee9a84	-0.0004551002
116	0x3a526354	0.00080256653
117	0x3a4fd4c3	0.00079281273
118	0x3853c507	5.0489816e-05
119	0xb913588e	-0.00014052002
120	0xba0c3def	-0.0005349805
121	0x3a286096	0.0006423084
122	0xba2ed8fb	-0.0006669906
123	0x39dacdf5	0.0004173365
124	0xb9f4a703	-0.0004666374
125	0xb93ee01a	-0.00018203296
126	0xb9f74906	-0.00047165918
127	0xba5809f4	-0.0008241229
128	0xb91421c2	-0.00014126956
129	0xb81b5eae	-3.7043057e-05
130	0xb754a08c	-1.2673565e-05
131	0x3716067c	8.9422065e-06
132	0xb9ee1ad4	-0.00045414886
133	0xb8abaa65	-8.185654e-05
134	0xb8f3305f	-0.00011596153
135	0x39896356	0.00026204687
136	0xb8903e30	-6.8780384e-05
137	0xb9bb42fc	-0.00035717327
138	0x3764fff4	1.3649453e-05
139	0xb9e086d5	-0.00042825067
140	0x39d15022	0.0003992329
141	0xb7788ae0	-1.4814286e-05
142	0xb95a32fe	-0.00020809096
143	0x368da28e	4.2210513e-06
144	0xb8f1eb60	-0.000115356175
145	0xb7933200	-1.7547049e-05
146	0x37d62222	2.5526682e-05
147	0xb8aa98d7	-8.1347e-05
148	0x38e024f3	0.00010688035
149	0xb9a7a52f	-0.00031975794
150	0x39d1ba74	0.00040002505
151	0x39a5377e	0.00031512597
152	0xb8e8a1d7	-0.00011092767
153	0xb9667cfc	-0.0002198107
154	0xba12284f	-0.00055754645
155	0x39aa1bfa	0.0003244577
156	0xb92dc50b	-0.0001657197
157	0xb87ed98d	-6.076093e-05
158	0x393a3ef8	0.000177618
159	0xb8683f62	-5.537214e-05
160	0x3941cef7	0.00018483015
161	0xb72e6be9	-1.0396333e-05
162	0xb824673e	-3.91968e-05
163	0x38d681e4	0.00010228509
164	0x38fa160b	0.00011925035
165	0x389b1862	7.3955176e-05
166	0x3930c09b	0.00016856419
167	0x389a390d	7.353919e-05
168	0xb8a20a36	-7.726664e-05
169	0x391a7cc8	0.00014733069
170	0x38dc7af5	0.0001051332
171	0xb81a9ac2	-3.686059e-05
172	0xb8b1bebc	-8.475545e-05
173	0xb89f027d	-7.582174e-05
174	0x39456695	0.00018825599
175	0xb7f92139	-2.9698584e-05
176	0x38200a83	3.8156762e-05
177	0xb91af4c4	-0.00014777767
178	0xb92170bd	-0.00015396155
179	0x392b1fbf	0.00016319657
180	0xb97b7dff	-0.00023984163
181	0xb84d074d	-4.8882608e-05
182	0xb94c877b	-0.00019505426
183	0xb8d4e86c	-0.0001015224
184	0x392ced32	0.0001649156
185	0xb88c8f6e	-6.702436e-05
186	0x39ce6cd1	0.00039372456
187	0xb9851408	-0.0002538266
188	0x3947ab83	0.00019042012
189	0x38a71b5e	7.968278e-05
190	0x37fef240	3.0391966e-05
191	0x395648e1	0.0002043578
192	0x39f25b2f	0.00046225774
193	0xb83bbe7a	-4.476167e-05
194	0xb92112ed	-0.00015361207
195	0x39a90073	0.00032234527
196	0xb8ed3fc4	-0.00011312918
197	0x38cdbae4	9.809973e-05
198	0x39ecd91d	0.0004517519
199	0x39d85486	0.00041261705
200	0xb995cc48	-0.00028571696
201	0x386b8a88	5.6157383e-05
202	0x39b3229d	0.0003416733
203	0xba157967	-0.0005701989
204	0x39146502	0.00014152008
205	0xb94a4510	-0.00019289949
206	0x39ccbdee	0.0003905142
207	0xb8b23e1b	-8.4992695e-05
208	0x37e02a2a	2.6722515e-05
209	0xb9d35c71	-0.0004031393
210	0xba09d4cd	-0.0005257845
211	0x39c984b7	0.00038436588
212	0xba3bc9e4	-0.0007163568
213	0xba071b3f	-0.00051539013
214	0xb96e2285	-0.00022710308
215	0xb73e4699	-1.134132e-05
216	0x39f90404	0.00047495973
217	0xb9cf0d85	-0.0003949219
218	0x3a4d8e6a	0.0007841351
219	0xb9f24aaa	-0.00046213466
220	0x39e675e6	0.0004395686
221	0x393538d1	0.00017282671
222	0x39ae1050	0.0003320002
223	0x3a363a4e	0.0006951437
224	0xb99793ea	-0.0002891117
225	0xb86f7f1e	-5.7100428e-05
226	0x39460f82	0.00018888529
227	0xb98b648d	-0.00026587062
228	0x3a3e5534	0.0007260621
229	0x396f2218	0.00022805517
230	0xb9b48304	-0.0003442989
231	0xb9be9f28	-0.00036358205
232	0x39871088	0.00025761523
233	0x3a0fe39d	0.0005488934
234	0xb9a2c38d	-0.00031044745
235	0x3a8f3118	0.0010924665
236	0xba2936b4	-0.000645499
237	0xb7aeec8c	-2.0852567e-05
238	0xb8ceefec	-9.8675344e-05
239	0x38991ce7	7.300992e-05
240	0x387f5f23	6.088534e-05
241	0x388570d2	6.3629486e-05
242	0x3a2b87e5	0.0006543382
243	0xb8420884	-4.6261135e-05
244	0x3a415dc7	0.00073763396
245	0x3a7e95da	0.00097116607
246	0xb96e0b3a	-0.00022701631
247	0xb9bfb351	-0.0003656396
248	0xba031682	-0.00050006073
249	0x39f55455	0.00046792874
250	0xb9b944fd	-0.0003533735
251	0xb8536982	-5.0404582e-05
252	0xb950a421	-0.00019897569
253	0xb7f9f3bc	-2.979661e-05
254	0xba3704bc	-0.00069816015
255	0xba6daa23	-0.0009066185

exp_avg_sq f4 [32, 32]
0	0x3314108f	3.4473995e-08
1	0x33a69ab1	7.7581156e-08
2	0x3209ca56	8.020455e-09
3	0x3392ec5d	6.841649e-08
4	0x31bb9796	5.4596496e-09
5	0x34201c3f	1.4911437e-07
6	0x32c57243	2.2985779e-08
7	0x34bcf54c	3.5196206e-07
8	0x33107ce5	3.3641204e-08
9	0x332b1922	3.98369e-08
10	0x32a53020	1.9230413e-08
11	0x3314cb0e	3.4643612e-08
12	0x3057fd22	7.857627e-10
13	0x3419dbc7	1.432919e-07
14	0x32fe513e	2.9606436e-08
15	0x30f45ee6	1.7780308e-09
16	0x320cf2b1	8.204254e-09
17	0x34d3847f	3.9398216e-07
18	0x32621b49	1.3161135e-08
19	0x3480be89	2.398049e-07
20	0x32e4b8e8	2.6626779e-08
21	0x31bdcd60	5.5239724e-09
22	0x320f8c60	8.355613e-09
23	0x31a27e32	4.7291673e-09
24	0x3223364b	9.5001935e-09
25	0x3457168c	2.0031638e-07
26	0x32b74dee	2.1339442e-08
27	0x3401271a	1.2028286e-07
28	0x331ab8be	3.602394e-08
29	0x323e55d9	1.1078975e-08
30	0x320b941e	8.124543e-09
31	0x32a1d26c	1.8838556e-08
32	0x33192b79	3.5662627e-08
33	0x33869bf3	6.268228e-08
34	0x32451f58	1.1474036e-08
35	0x3361723f	5.24908e-08
36	0x32129ab5	8.533495e-09
37	0x340703f2	1.257429e-07
38	0x33096cfd	3.1996922e-08
39	0x34869ad1	2.507209e-07
40	0x3299b5d3	1.7894228e-08
41	0x328c480d	1.633091e-08
42	0x32353b55	1.0549077e-08
43	0x33262166	3.8680263e-08
44	0x303f0a1d	6.9499767e-10
45	0x33c53217	9.182639e-08
46	0x32a4b500	1.9174422e-08
47	0x313a1f74	2.7084441e-09
48	0x320fea91	8.37703e-09
49	0x349a9214	2.879102e-07
50	0x31f6729b	7.1725714e-09
51	0x342fb8a4	1.6365317e-07
52	0x3295abee	1.7424068e-08
53	0x31c7ef32	5.8188556e-09
54	0x31af5015	5.1022746e-09
55	0x320371dc	7.651092e-09
56	0x328759b4	1.575686e-08
57	0x342b38d5	1.5946291e-07
58	0x3248e021	1.1692493e-08
59	0x33ae7ad4	8.124849e-08
60	0x3301669f	3.0128486e-08
61	0x31897ec6	4.0016372e-09
62	0x31c91208	5.85192e-09
63	0x326b751a	1.3705426e-08
64	0x34d8f6c3	4.0412678e-07
65	0x357be99f	9.384475e-07
66	0x34091576	1.2766927e-07
67	0x355cb7bb	8.222375e-07
68	0x33bde84c	8.843253e-08
69	0x35f65488	1.835303e-06
70	0x34aac852	3.181072e-07
71	0x368aab6d	4.132677e-06
72	0x34c46557	3.658158e-07
73	0x34d86dc3	4.0312997e-07
74	0x344dab4a	1.9154427e-07
75	0x34fe1d46	4.7332486e-07
76	0x3211e41f	8.49198e-09
77	0x35dfddd5	1.6679356e-06
78	0x3492590a	2.7259404e-07
79	0x32e916fc	2.7135222e-08
80	0x33e88d7d	1.08290784e-07
81	0x369b3ae6	4.6262167e-06
82	0x3412f49c	1.3686298e-07
83	0x36399513	2.765392e-06
84	0x34856a26	2.4850414e-07
85	0x33938504	6.869416e-08
86	0x3381df67	6.047667e-08
87	0x33902183	6.711618e-08
88	0x34116f2a	1.3544619e-07
89	0x3623cee2	2.4409314e-06
90	0x33f9818f	1.16185326e-07
91	0x35af4b5e	1.3060451e-06
92	0x34d7edaf	4.0219808e-07
93	0x33deb39f	1.03703535e-07
94	0x33e2d610	1.0562883e-07
95	0x347a2f08	2.3300174e-07
96	0x349a0fab	2.8696135e-07
97	0x352c2d90	6.4141295e-07
98	0x33b3b59b	8.368371e-08
99	0x35257efd	6.165208e-07
100	0x33c3fec6	9.126738e-08
101	0x35ae3243	1.2978638e-06
102	0x3480bd11	2.3979422e-07
103	0x364da963	3.0645976e-06
104	0x34acd94b	3.2195598e-07
105	0x34d15b32	3.8995637e-07
106	0x3431d028	1.6560136e-07
107	0x34bb17ea	3.4848864e-07
108	0x329a00a1	1.7928246e-08
109	0x35aade15	1.2730621e-06
110	0x3482f6f2	2.4394063e-07
111	0x32acae36	2.0102657e-08
112	0x3387ff6d	6.332889e-08
113	0x36641a73	3.3990043e-06
114	0x34023c0a	1.2129036e-07
115	0x360af89c	2.0708312e-06
116	0x34339225	1.6723841e-07
117	0x339c1001	7.267227e-08
118	0x330a200c	3.2159775e-08
119	0x333f88d5	4.45951e-08
120	0x33d46804	9.8909396e-08
121	0x35e77e73	1.7247643e-06
122	0x33e1dbf1	1.0517386e-07
123	0x358989c8	1.0247395e-06
124	0x34a493b0	3.0654837e-07
125	0x33f20e05	1.1271553e-07
126	0x340ded7f	1.3218049e-07
127	0x3477f816	2.3093921e-07
128	0x34151e71	1.3887781e-07
129	0x348f5b7b	2.6702386e-07
130	0x33359cfd	4.2285127e-08
131	0x347f009b	2.3748946e-07
132	0x33359649	4.227903e-08
133	0x351825ce	5.6679426e-07
134	0x33fbfc3b	1.1733979e-07
135	0x359d61a5	1.172583e-06
136	0x33da0578	1.0152411e-07
137	0x33ebc9b2	1.09797284e-07
138	0x33663937	5.3603085e-08
139	0x341fbcce	1.4876716e-07
140	0x31fee142	7.417982e-09
141	0x34f6978d	4.5931338e-07
142	0x33bffaaf	8.93973e-08
143	0x322913a6	9.841562e-09
144	0x33206e86	3.7353423e-08
145	0x35b3a04e	1.3383194e-06
146	0x330e42dc	3.312276e-08
147	0x354fdf45	7.743841e-07
148	0x33912472	6.758718e-08
149	0x32a6e3be	1.9428509e-08
150	0x32c652f7	2.3087962e-08
151	0x3303042e	3.0504616e-08
152	0x335bbf74	5.1164037e-08
153	0x353d93e4	7.0623196e-07
154	0x33283ab9	3.9168956e-08
155	0x34d0e785	3.8911472e-07
156	0x3412b0b1	1.366159e-07
157	0x32f4be5a	2.84919e-08
158	0x33175b8c	3.524069e-08
159	0x337bc8c6	5.8623094e-08
160	0x334d7868	4.783979e-08
161	0x33d4ccf4	9.9093e-08
162	0x3283e669	1.5355186e-08
163	0x33b5b7e4	8.461919e-08
164	0x323fd9e9	1.116721e-08
165	0x344fd395	1.935535e-07
166	0x332d2542	4.0313587e-08
167	0x34e1216f	4.1933842e-07
168	0x3313af06	3.4385288e-08
169	0x331d319a	3.6599523e-08
170	0x32a05a2b	1.8667455e-08
171	0x33664ea1	5.362256e-08
172	0x3017f8a7	5.5286836e-10
173	0x343092af	1.644464e-07
174	0x32f65a22	2.8679157e-08
175	0x317cded7	3.6797496e-09
176	0x3252a705	1.2261585e-08
177	0x34fe0e18	4.732144e-07
178	0x32718a53	1.4059498e-08
179	0x34957126	2.783574e-07
180	0x32f2175e	2.8183134e-08
181	0x32018781	7.539598e-09
182	0x320180f4	7.538109e-09
183	0x321c1c87	9.0868815e-09
184	0x32a4439d	1.912286e-08
185	0x3488bc0b	2.5468793e-07
186	0x3293849f	1.7173361e-08
187	0x340ef27a	1.3312993e-07
188	0x333c8a67	4.3898037e-08
189	0x321e0fba	9.200386e-09
190	0x323298d3	1.0395712e-08
191	0x32d39793	2.463256e-08
192	0x34de48f9	4.1403817e-07
193	0x356fc251	8.9317206e-07
194	0x340ed010	1.3300473e-07
195	0x3551da1d	7.8175964e-07
196	0x33dd5c31	1.0307884e-07
197	0x35e912dd	1.7365343e-06
198	0x34bc1e23	3.5039656e-07
199	0x3682ca2e	3.8978387e-06
200	0x34b8c5c2	3.4416558e-07
201	0x34d0dc26	3.8903198e-07
202	0x3444db11	1.8333618e-07
203	0x35019b5c	4.828232e-07
204	0x32000d07	7.453543e-09
205	0x35d10689	1.5573615e-06
206	0x349139e9	2.705049e-07
207	0x3308e020	3.1868808e-08
208	0x33d7e046	1.0052513e-07
209	0x3692611b	4.3624436e-06
210	0x3417b392	1.4128298e-07
211	0x362e9511	2.6014789e-06
212	0x34850014	2.4773237e-07
213	0x33aadf3c	7.956848e-08
214	0x336ea1f1	5.5560978e-08
215	0x339a684a	7.190154e-08
216	0x342c472a	1.6044638e-07
217	0x361b239d	2.311753e-06
218	0x3419f2dd	1.4337589e-07
219	0x35a670a9	1.2400752e-06
220	0x34d204d8	3.9119072e-07
221	0x33db6788	1.02168144e-07
222	0x33fdd03b	1.18191075e-07
223	0x348b1308	2.5904615e-07
224	0x34723fa4	2.2561159e-07
225	0x350a10b2	5.14333e-07
226	0x337fbdb0	5.9544334e-08
227	0x350d8912	5.2726057e-07
228	0x33df0bee	1.0386417e-07
229	0x35969a6c	1.1220814e-06
230	0x344850a7	1.8655793e-07
231	0x3631ec7e	2.6512712e-06
232	0x34a57b35	3.082329e-07
233	0x34d9f4e1	4.0597573e-07
234	0x34234974	1.520728e-07
235	0x3491fd97	2.7192866e-07
236	0x33063c00	3.1253876e-08
237	0x3598c2e9	1.1381609e-06
238	0x3476fa7e	2.3001664e-07
239	0x32798345	1.4523555e-08
240	0x335a165d	5.077742e-08
241	0x3645e95f	2.9491127e-06
242	0x33fa949d	1.1668565e-07
243	0x35f2716a	1.8063413e-06
244	0x3406ccc7	1.255422e-07
245	0x33900096	6.705629e-08
246	0x32d0881a	2.4276279e-08
247	0x33261698	3.8670436e-08
248	0x3398aa30	7.1090085e-08
249	0x35bf45bf	1.4250908e-06
250	0x33b2c979	8.3254186e-08
251	0x35788160	9.2575465e-07
252	0x3492360b	2.723394e-07
253	0x33fd670f	1.1799977e-07
254	0x3425697f	1.5405202e-07
255	0x3475d103	2.2893441e-07

exp_avg f4 [32]
0	0xb9b005b3	-0.00033573582
1	0xb9a23180	-0.00030935928
2	0x39cdbb6a	0.0003924028
3	0x39d446c5	0.00040488518
4	0xb966d164	-0.00022012513
5	0x388d0b01	6.7254536e-05
6	0xb9a61d94	-0.00031684025
7	0x3ad25f45	0.0016050121
8	0x3a145942	0.00056590524
9	0x39a398bf	0.00031203587
10	0xb955d2f9	-0.00020391856
11	0xba4ddfbf	-0.000785347
12	0xba8c1cf4	-0.0010689781
13	0xba21ce6e	-0.0006172423
14	0x39a5bb78	0.00031610928
15	0x3a0df1e7	0.00054147694
16	0x3a4e3f36	0.00078676955
17	0xba90aa96	-0.0011037167
18	0x3a8b3542	0.001062073
19	0x3aea9006	0.0017895706
20	0x38cd57e2	9.791531e-05
21	0x39c64f4e	0.0003782459
22	0x39e1c739	0.00043063777
23	0xb9c0e632	-0.00036792603
24	0xb8c5a364	-9.424126e-05
25	0xba9b796a	-0.0011861746
26	0xb9dbc352	-0.0004191646
27	0xba05c716	-0.00051032135
28	0xba09f64f	-0.0005262838
29	0x3953802a	0.00020170273
30	0xba2300e6	-0.00062180904
31	0xba126d4e	-0.00055857457

exp_avg_sq f4 [32]
0	0x35b76def	1.3666557e-06
1	0x357be3f4	9.38365e-07
2	0x3788d01f	1.6309377e-05
3	0x37539f9a	1.261374e-05
4	0x36a0f543	4.796924e-06
5	0x35d87e19	1.6129953e-06
6	0x377f268a	1.52081575e-05
7	0x37477dec	1.1890643e-05
8	0x370029d5	7.639134e-06
9	0x3747758e	1.1888695e-05
10	0x36fab71b	7.471897e-06
11	0x37aedbe1	2.0844805e-05
12	0x3802555c	3.1073912e-05
13	0x365cb4a3	3.28877e-06
14	0x3750aa89	1.2437472e-05
15	0x3726ec10	9.949334e-06
16	0x35962849	1.1187595e-06
17	0x370ed4ad	8.513377e-06
18	0x36ae7614	5.19935e-06
19	0x37a43116	1.957318e-05
20	0x340f1f02	1.3329193e-07
21	0x382e5a1c	4.1568754e-05
22	0x36b21404	5.3071435e-06
23	0x37876b94	1.6143349e-05
24	0x364ab5be	3.0206133e-06
25	0x36ca9cd1	6.038325e-06
26	0x36987456	4.5434963e-06
27	0x36438653	2.9135451e-06
28	0x35b1e66f	1.3254593e-06
29	0x379cf84b	1.871227e-05
30	0x360407dd	1.967411e-06
31	0x37d19567	2.4984312e-05

exp_avg f4 [32]
0	0xb9b005b3	-0.00033573582
1	0xb9a23180	-0.00030935928
2	0x39cdbb6a	0.0003924028
3	0x39d446c5	0.00040488518
4	0xb966d164	-0.00022012513
5	0x388d0b01	6.7254536e-05
6	0xb9a61d94	-0.00031684025
7	0x3ad25f45	0.0016050121
8	0x3a145942	0.00056590524
9	0x39a398bf	0.00031203587
10	0xb955d2f9	-0.00020391856
11	0xba4ddfbf	-0.000785347
12	0xba8c1cf4	-0.0010689781
13	0xba21ce6e	-0.0006172423
14	0x39a5bb78	0.00031610928
15	0x3a0df1e7	0.00054147694
16	0x3a4e3f36	0.00078676955
17	0xba90aa96	-0.0011037167
18	0x3a8b3542	0.001062073
19	0x3aea9006	0.0017895706
20	0x38cd57e2	9.791531e-05
21	0x39c64f4e	0.0003782459
22	0x39e1c739	0.00043063777
23	0xb9c0e632	-0.00036792603
24	0xb8c5a364	-9.424126e-05
25	0xba9b796a	-0.0011861746
26	0xb9dbc352	-0.0004191646
27	0xba05c716	-0.00051032135
28	0xba09f64f	-0.0005262838
29	0x3953802a	0.00020170273
30	0xba2300e6	-0.00062180904
31	0xba126d4e	-0.00055857457

exp_avg_sq f4 [32]
0	0x35b76def	1.3666557e-06
1	0x357be3f4	9.38365e-07
2	0x3788d01f	1.6309377e-05
3	0x37539f9a	1.261374e-05
4	0x36a0f543	4.796924e-06
5	0x35d87e19	1.6129953e-06
6	0x377f268a	1.52081575e-05
7	0x37477dec	1.1890643e-05
8	0x370029d5	7.639134e-06
9	0x3747758e	1.1888695e-05
10	0x36fab71b	7.471897e-06
11	0x37aedbe1	2.0844805e-05
12	0x3802555c	3.1073912e-05
13	0x365cb4a3	3.28877e-06
14	0x3750aa89	1.2437472e-05
15	0x3726ec10	9.949334e-06
16	0x35962849	1.1187595e-06
17	0x370ed4ad	8.513377e-06
18	0x36ae7614	5.19935e-06
19	0x37a43116	1.957318e-05
20	0x340f1f02	1.3329193e-07
21	0x382e5a1c	4.1568754e-05
22	0x36b21404	5.3071435e-06
23	0x37876b94	1.6143349e-05
24	0x364ab5be	3.0206133e-06
25	0x36ca9cd1	6.038325e-06
26	0x36987456	4.5434963e-06
27	0x36438653	2.9135451e-06
28	0x35b1e66f	1.3254593e-06
29	0x379cf84b	1.871227e-05
30	0x360407dd	1.967411e-06
31	0x37d19567	2.4984312e-05

exp_avg f4 [1, 32]
0	0xbbc15804	-0.005900385
1	0x3ab3097a	0.001365944
2	0x3b0c89fc	0.002144455
3	0xbbafbbed	-0.0053629787
4	0x3ae7b5d2	0.0017678088
5	0xbb310624	-0.0027011717
6	0xbbbd43d8	-0.00577591
7	0xbc01e55e	-0.007928221
8	0x3b978515	0.004624019
9	0xba30b50a	-0.0006740844
10	0xbb9c3b08	-0.0047677793
11	0x3c0d8869	0.00863848
12	0xbb1aab06	-0.0023600473
13	0x3b85aab2	0.0040791864
14	0xbba7da1a	-0.0051224353
15	0x3a80f8ee	0.0009839812
16	0x3a1f63a5	0.0006080217
17	0x3bf5db28	0.007502932
18	0x3bc1f4fc	0.005919097
19	0xbbd58cb7	-0.0065170187
20	0x3c08d084	0.008350495
21	0x3be7c667	0.007073212
22	0x3b01dec0	0.0019816607
23	0xb9899fba	-0.00026249682
24	0xbbbd3332	-0.005773925
25	0x3bea5047	0.007150683
26	0xbc098901	-0.008394481
27	0x3bd61aae	0.006533942
28	0xbbbeca54	-0.0058224592
29	0xbb28c67a	-0.0025753067
30	0xbb782590	-0.0037864186
31	0xbc020369	-0.007935383

exp_avg_sq f4 [1, 32]
0	0x3761ecb3	1.3466156e-05
1	0x37cadaa8	2.4182096e-05
2	0x36855dad	3.974614e-06
3	0x37c4dc05	2.3467475e-05
4	0x368384e5	3.919575e-06
5	0x385090b5	4.9725833e-05
6	0x374e8312	1.2309074e-05
7	0x38ec8151	0.00011277444
8	0x3740b8ac	1.1487089e-05
9	0x37581046	1.2878392e-05
10	0x36d465ed	6.329958e-06
11	0x3786e47c	1.6080441e-05
12	0x352ee5d0	6.515447e-07
13	0x383e1d54	4.5326844e-05
14	0x3726d62d	9.944238e-06
15	0x3577a57a	9.225547e-07
16	0x36288269	2.510986e-06
17	0x39043342	0.00012607596
18	0x36b6003b	5.4240495e-06
19	0x389eec5f	7.578055e-05
20	0x37067836	8.015011e-06
21	0x3689124f	4.0850496e-06
22	0x35b002d9	1.3113851e-06
23	0x36137771	2.197423e-06
24	0x36bd735e	5.6460694e-06
25	0x38898c3c	6.55879e-05
26	0x36ea60d1	6.9850144e-06
27	0x38214d3c	3.845732e-05
28	0x375aaeb2	1.3034487e-05
29	0x3681b6da	3.8657863e-06
30	0x36ae9fbe	5.2042005e-06
31	0x3733de8a	1.0721045e-05
